chatbot_model.pth (torch, 40836 bytes, 6 tensors)

fc1.weight f4 [128, 8]
-0.18297535 -0.035172123 -0.02766339 0.059495293 0.1789202 -0.19286102 -0.19199394 -0.30116144
-0.13384734 -0.12810273 -0.08491237 -0.11671638 -0.34437105 -0.17090075 -0.22752015 0.01322311
-0.17795527 0.23815104 -0.121510394 0.15880355 -0.10011954 -0.13788341 -0.29078463 0.05561673
-0.18560714 -0.1819379 -0.33502576 0.039687376 0.34633774 0.04704626 -0.15431452 0.06348614
0.22333837 0.28512952 0.06669349 -0.13438345 -0.14490715 -0.24658738 -0.12743883 -0.15925325
0.2890795 -0.13438371 -0.0913141 0.11074997 -0.32928106 0.10500514 0.2688864 0.2806039
-0.14869669 -0.0042072246 0.24806932 -0.058265083 0.33442387 -0.29365924 0.30043295 0.2229318
-0.3525731 0.04355919 -0.04118771 0.3424394 0.07580579 -0.22634901 0.31648698 0.35702193
0.070243 0.38642114 -0.02911478 0.10765911 -0.23675828 -0.31462365 -0.02909654 -0.15361847
-0.18498483 0.039685458 0.21708685 -0.23901734 -0.07726044 -0.16032244 0.2494615 -0.14661443
0.27982196 -0.18311654 -0.0866331 0.198065 0.09500524 -0.0132712135 0.30726293 0.15374832
0.32030085 0.10128623 -0.29902086 -0.2655721 0.22579157 -0.13116942 -0.18097275 -0.18330099
0.29201555 0.27192032 0.14456724 -0.0070589245 -0.14923114 -0.31107634 0.1112121 0.045039937
0.009350405 0.3635869 0.12726232 -0.19955695 0.15100586 0.059534997 0.016418347 -0.019675
0.3600401 -0.277852 0.22549888 0.19626836 0.24892499 -0.26283908 -0.12970825 -0.02590398
0.0037790127 -0.05808927 0.21931063 0.05462202 -0.08050861 -0.012198309 -0.27413958 0.19700836
0.21530557 -0.2869456 -0.23252879 0.34200227 0.33732834 0.27208242 0.16363211 0.25409874
-0.03915839 0.2856267 -0.31813583 0.25734898 0.15639089 0.1870371 -0.018294038 -0.1425706
0.03220626 0.3497493 -0.277057 0.2236115 -0.27202305 0.019530278 0.06403264 0.12939806
-0.0827177 0.119057514 -0.068666406 0.10478291 -0.046456307 -0.09009649 -0.17441642 0.18082128
0.0759157 0.091139235 0.08554796 -0.09431117 0.3693794 -0.25772962 0.16302188 0.31223854
-0.09742505 -0.19030339 0.13859735 -0.1764281 -0.20490423 -0.3057379 0.18233468 -0.065499656
0.22142045 0.2794021 0.22233617 0.2899004 0.30071038 -0.18674615 0.13063504 0.2095854
0.26979235 -0.33377808 0.14232664 0.05617606 -0.20824774 0.22790718 -0.1490398 -0.17460406
0.08589136 -0.23061077 0.35665643 0.002144811 0.27977264 -0.19734949 -0.34548894 0.041947536
0.0066188443 -0.030722734 -0.22509974 -0.15743065 0.32589927 -0.3437874 0.28560016 0.060877427
-0.19209087 0.27345255 0.37635538 -0.24195777 -0.086048394 -0.017219475 -0.29751524 0.24812308
0.2542371 0.2760682 0.23066469 0.24768996 0.19358741 -0.030350458 0.3051678 -0.035678398
0.33836508 0.3347416 0.31188425 0.16106132 -0.25391555 -0.3292478 -0.30396175 -0.2622608
-0.024358662 -0.20371653 0.3454515 0.1593765 -0.16535467 0.110083096 -0.07319065 -0.17874552
-0.29479262 -0.16346446 -0.043970283 -0.13770904 -0.24324119 0.3591382 0.26921803 0.26560408
-0.013394732 0.2241547 -0.04472632 0.28640056 0.03911985 0.23099756 0.21112992 0.18946578
00000000: e45d 3bbe a510 10bd 559e e2bc 56b1 733d
00000010: db36 373e 5c7d 45be 0f9a 44be d531 9abe
00000020: 470f 09be 5d2d 03be 89e6 adbd ff08 efbd
00000030: 6751 b0be 9b00 2fbe 0bfb 68be bea5 583c
00000040: e839 36be dedd 733e 71da f8bd 669d 223e
00000050: 790b cdbd 4f31 0dbe b9e1 94be 5ece 633d
00000060: cc0f 3ebe ee4d 3abe 7f88 abbe 3b8f 223d
00000070: 2e53 b13e 94b3 403d a004 1ebe 0505 823d
00000080: d0b2 643e 7ffc 913e 9996 883d d19b 09be
00000090: 8a62 14be 6781 7cbe 537f 02be 4913 23be
000000a0: 3a02 943e e29b 09be e302 bbbd e1d0 e23d
000000b0: 8797 a8be ef0c d73d 7aab 893e 50ab 8f3e
000000c0: f243 18be c2dc 89bb e205 7e3e 5ea7 6ebd
000000d0: 9b39 ab3e 815a 96be 59d2 993e 3c48 643e
000000e0: 7684 b4be 1f6b 323d 72b4 28bd 3854 af3e
000000f0: 1140 9b3d 09c8 67be 950a a23e 94cb b63e
00000100: 90db 8f3d fed8 c53e 1e82 eebc 617c dc3d
00000110: c370 72be 5a16 a1be de5b eebc 294e 1dbe
00000120: aa6c 3dbe 388d 223d 044c 5e3e f6c0 74be
00000130: b93a 9ebd 912b 24be d672 7f3e 1822 16be
00000140: d344 8f3e e782 3bbe b26c b1bd 8dd1 4a3e
00000150: 1b92 c23d 816f 59bc 9151 9d3e 3370 1d3e
00000160: 79fe a33e 286f cf3d 4319 99be 11f9 87be
00000170: e835 673e 4751 06be ec50 39be 41b3 3bbe
00000180: 1083 953e 2439 8b3e 6f09 143e 8d4e e7bb
00000190: 0cd0 18be 6645 9fbe 2bc3 e33d cc7b 383d
000001a0: 7132 193c 1028 ba3e 0e51 023e a858 4cbe
000001b0: 48a1 1a3e f8da 733d c57f 863c 772d a1bc
000001c0: 2d57 b83e 9e42 8ebe 2ee9 663e 93fa 483e
000001d0: 31e6 7e3e d892 86be 3dd2 04be 9534 d4bc
000001e0: 50a9 773b 04ef 6dbd f792 603e 57bb 5f3d
000001f0: b3e1 a4bd 6bdb 47bc 065c 8cbe 8fbc 493e
00000200: 1079 5c3e 89ea 92be 071c 6ebe ec1a af3e
00000210: 4db6 ac3e 634e 8b3e 2d8f 273e 3b19 823e
00000220: 8c64 20bd aa3d 923e b3e2 a2be 3fc3 833e
00000230: ef24 203e a786 3f3e 61dd 95bc 07fe 11be
00000240: b6ea 033d 5712 b33e 6ada 8dbe 6afa 643e
00000250: 9b46 8bbe f6fd 9f3c 8b23 833d ed80 043e
00000260: e667 a9bd 6dd4 f33d f9a0 8cbd 6c98 d63d
00000270: f848 3ebd 8284 b8bd 389a 32be 3729 393e
00000280: b179 9b3d 35a7 ba3d c533 af3d 3726 c1bd
00000290: 4c1f bd3e 23f5 83be 35ef 263e bbdd 9f3e
000002a0: c986 c7bd e4de 42be 77ec 0d3e 91a9 34be
000002b0: 6ad2 51be ae89 9cbe f1b5 3a3e af24 86bd
000002c0: 0bbc 623e cb0d 8f3e 18ac 633e d36d 943e
000002d0: b6f6 993e 623a 3fbe 31c5 053e 8e9d 563e
000002e0: 3922 8a3e f6e4 aabe 13be 113e de18 663d
000002f0: e53e 55be 8060 693e e49d 18be 68cb 32be
00000300: cfe7 af3d 3b25 6cbe ac9b b63e f58f 0c3b
00000310: 5c3e 8f3e fc15 4abe ede3 b0be 2ed1 2b3d
00000320: e4e2 d83b 3eae fbbc 8c80 66be 8035 21be
00000330: 45dc a63e e704 b0be 2f3a 923e 9c5a 793d
00000340: 78b3 44be f901 8c3e a7b1 c03e c7c3 77be
00000350: 243a b0bd db0f 8dbc eb53 98be fa13 7e3e
00000360: 5d2b 823e d058 8d3e 5d33 6c3e 70a2 7d3e
00000370: c73b 463e 86a1 f8bc f43e 9c3e 8323 12bd
00000380: 303e ad3e 4063 ab3e 4baf 9f3e 42ed 243e
00000390: 3801 82be 2b93 a8be e0a0 9bbe 0c47 86be
000003a0: d18b c7bc 119b 50be 05df b03e 9833 233e
000003b0: bc52 29be 3f73 e13d fbe4 95bd 1109 37be
000003c0: 0fef 96be 3a63 27be 2f1a 34bd 9903 0dbe
000003d0: 3814 79be f6e0 b73e f2d6 893e 42fd 873e
000003e0: 9475 5bbc cf88 653e f232 37bd 18a3 923e
000003f0: 233c 203d a08a 6c3e 7132 583e 5103 423e

fc1.bias f4 [128]
0.017061424 -0.055323344 0.25082758 0.18219277 0.28173184 -0.085626245 -0.032156046 -0.05930132
0.32350665 0.111381456 -0.25069287 0.37091997 0.3809995 -0.011471059 0.0059257895 -0.13808964
0.15892212 0.11988963 -0.15888074 0.021621104 0.19781864 0.043310497 -0.28161252 -0.037136316
-0.09005576 -0.0060908687 -0.048405174 -0.3069618 0.3250056 0.25449982 0.13152881 -0.08038308
-0.044515427 0.010565376 -0.31744668 0.35536778 0.32366493 0.1311072 -0.3140383 -0.07390509
-0.31918997 -0.02478638 0.1050814 0.087302625 -0.3076257 0.26914284 -0.027537657 0.19306225
0.23129864 -0.13841408 0.085803926 -0.23185407 0.007365284 -0.3111793 -0.033873506 -0.2112861
-0.34411645 0.15205804 -0.1797258 0.24947609 0.3132545 0.23054482 0.0014758449 -0.16035232
0.019147655 0.21215661 0.2501547 -0.16597871 0.09506327 0.051366884 -0.027507538 0.09403292
0.18781012 0.2752146 0.12722957 -0.27373993 -0.22330339 -0.06867774 0.27828786 -0.07052581
0.1950006 -0.32153705 -0.12733369 0.033473093 -0.025408775 -0.09972206 0.044631064 0.119187325
0.19842301 0.3714009 -0.09301476 -0.086493626 0.19620514 0.24457774 -0.11692825 0.10465945
0.14287727 0.3012491 -0.10822594 -0.27288222 0.2591194 -0.17315948 0.28132844 0.04482458
-0.22892076 0.048535693 -0.18079038 -0.31844178 -0.20800081 0.27335843 0.11671107 0.03702118
-0.32872927 0.2545689 -0.3500964 0.098546706 0.36850634 0.017897582 0.1858915 -0.30553344
0.24890418 -0.1660916 0.095572844 0.34576598 0.0038406437 -0.16591361 -0.13183849 -0.11656431
00000000: 66c4 8b3c bb9a 62bd 796c 803e be90 3a3e
00000010: 283f 903e d05c afbd 0fb6 03bd f1e5 72bd
00000020: aaa2 a53e f61b e43d d15a 80be 39e9 bd3e
00000030: 5e12 c33e 1cf1 3bbc 202d c23b 5f67 0dbe
00000040: 7bbc 223e b288 f53d a2b1 22be be1e b13c
00000050: f890 4a3e 5966 313d 842f 90be 401c 18bd
00000060: 286f b8bd e995 c7bb 8144 46bd 192a 9dbe
00000070: 2267 a63e cd4d 823e 7daf 063e e29f a4bd
00000080: cf55 36bd 661a 2d3c 5f88 a2be c4f2 b53e
00000090: 69b7 a53e f740 063e a1c9 a0be 8d5b 97bd
000000a0: de6c a3be ce0c cbbc eb34 d73d b8cb b23d
000000b0: 1e81 9dbe 17cd 893e a796 e1bc 1cb2 453e
000000c0: 8dd9 6c3e 6cbc 0dbe f8b9 af3d 276b 6dbe
000000d0: 7b58 f13b e552 9fbe f2be 0abd 625b 58be
000000e0: 0830 b0be 1ab5 1b3e 0a0a 38be a976 7f3e
000000f0: e562 a03e f113 6c3e 2371 c13a 6633 24be
00000100: 8bdb 9c3c 953f 593e 4714 803e 53f6 29be
00000110: 88b0 c23d 1566 523d 7d57 e1bc 5594 c03d
00000120: 4c51 403e eee8 8c3e 7848 023e a427 8cbe
00000130: a5a9 64be eaa6 8cbd bf7b 8e3e d66f 90bd
00000140: 3dae 473e 81a0 a4be c363 02be 151b 093d
00000150: 1026 d0bc 143b ccbd 10cf 363d 7c18 f43d
00000160: 672f 4b3e 4228 be3e 867e bebd 9223 b1bd
00000170: 00ea 483e 9672 7a3e 1478 efbd b257 d63d
00000180: 6b4e 123e 523d 9a3e 90a5 ddbd 38b7 8bbe
00000190: 4cab 843e b850 31be 480a 903e fb99 373d
000001a0: 346a 6abe 5dcd 463d 1d21 39be cd0a a3be
000001b0: 2afe 54be a3f5 8b3e 3706 ef3d 85a3 173d
000001c0: 344f a8be db56 823e d63f b3be dbd2 c93d
000001d0: ddac bc3e f39d 923c 575a 3e3e e16e 9cbe
000001e0: bde0 7e3e eb13 2abe b2bb c33d 3d08 b13e
000001f0: 4fb3 7b3b 42e5 29be ab00 07be 45b9 eebd

fc2.weight f4 [64, 128]
0.03777948 -0.0412564 0.03736315 -0.01826154 -0.060064726 0.0063758786 0.11802911 -0.030408401
-0.032821484 -0.104352176 0.024730165 -0.07174832 -0.005491134 -0.09674174 -0.07098479 -0.098356105
-0.009748814 -0.008923402 0.015118708 0.03202817 0.081893235 -0.027602477 0.110347085 -0.103005886
-0.08394102 -0.00013861894 0.037581418 -0.04446618 -0.024433421 0.0030317958 -0.020384438 0.08795224
-0.07077327 -0.08759842 0.06420842 0.03256619 -0.09796221 0.024063699 -0.057836782 -0.022973524
-0.05714004 0.00019822897 0.04569298 0.083218366 -0.07836643 0.050642807 -0.012231912 0.009370815
0.08195152 -0.08587565 0.042582214 -0.012522964 -0.032899927 -0.017097881 0.07370565 0.019300679
-0.0058427122 0.07390763 -0.049460646 0.115485564 0.015886769 -0.06343206 0.080886945 -0.078949615
-0.06253233 0.035913344 -0.04409206 0.13414161 -0.029184487 -0.049909 -0.0059074797 -0.056245305
-0.061786797 -0.06783686 0.032427385 0.033144683 0.08588782 0.056509197 -0.029679436 0.028874978
0.037962727 0.08402598 0.071203314 -0.06984253 -0.016897894 -0.09096899 -0.062070675 0.056847967
-0.009955213 0.03633417 0.07100092 0.027799921 0.05674109 0.04980084 0.02757891 0.017690752
-0.02147876 0.07709274 0.0505255 -0.0019547287 0.101482056 -0.024291603 -0.015373393 0.017561818
0.12695993 0.07389961 -0.058838155 -0.049473833 0.088380665 0.096563846 -0.007612895 0.024210773
-0.023417167 -0.016927129 -0.0049048816 -0.072460495 -0.0678003 -0.049723055 0.051035076 0.08156411
0.07009813 -0.04237829 -0.049721416 -0.012548333 -0.08684937 0.015592638 -0.07449439 -0.011364012
-0.049879484 -0.034676645 -0.04141726 0.084449604 -0.07863808 0.09325151 -0.04615963 -0.04350455
0.04368347 -0.06856328 0.110205926 -0.018083097 -0.08176639 -0.015687821 0.030770624 -0.00997597
0.04050073 0.074278854 -0.009473001 0.031942584 0.021865515 -0.079726905 0.10261548 0.04469108
-0.027971653 0.045249656 -0.07549324 0.047054633 -0.021909269 -0.0009246546 -0.0036648314 0.07255852
0.06325263 -0.028874809 0.06503808 0.029634755 -0.020710485 0.09866582 0.0017306233 -0.033533633
-0.036540423 0.004247815 -0.055618744 0.021393888 -0.02122706 -0.07512369 0.09950727 0.022497697
0.012856432 0.023916354 0.053483654 -0.08894157 0.08696866 -0.039462738 0.04524822 -0.029222418
-0.050015654 -0.047430884 -0.036163308 0.07243635 -0.05603549 -0.029819869 -0.048472103 -0.00021440299
-0.082600966 -0.0986222 0.08924923 0.11736413 -0.084485464 -0.028440349 0.023079466 0.023324715
-0.003762509 -0.05003062 -0.07389397 0.03102183 0.041555986 -0.037261155 -0.04396584 -0.070716165
-0.043808773 0.08526088 -0.049175274 0.008505293 0.056368068 -0.093676515 -0.078559436 -0.029908579
0.042300146 0.003442657 -0.011299826 0.06640994 0.040434655 0.03525004 -0.040585816 0.09691669
0.07111121 -0.053251807 0.020894345 0.027517572 0.076515175 0.057963677 -0.08031595 0.0027515488
-0.050908044 -0.014188076 -0.022007193 0.014440374 0.016524998 0.07568764 -0.03989309 0.05083532
-0.024150375 0.10676416 -0.07488116 -0.052599728 0.020868694 0.026280966 -0.017906327 0.05243032
-0.06229899 0.10962245 0.060852505 0.028645758 -0.054175492 0.04734938 0.019557644 -0.060222715
00000000: a8be 1a3d 79fc 28bd 1a0a 193d 3a99 95bc
00000010: 6e06 76bd bfec d03b 3fb9 f13d 0a1b f9bc
00000020: d26f 06bd 98b6 d5bd ea96 ca3c c8f0 92bd
00000030: f8ee b3bb 8920 c6bd 7960 91bd ed6e c9bd
00000040: 7db9 1fbc 7633 12bc 75b4 773c f82f 033d
00000050: a4b7 a73d 971e e2bc a7fd e13d c0f4 d2bd
00000060: 45e9 abbd 3d5a 11b9 f9ee 193d 2b22 36bd
00000070: 9928 c8bc 18b1 463b 44fd a6bc 4e20 b43d
00000080: 94f1 90bd cd66 b3bd b47f 833d 2064 053d
00000090: 69a0 c8bd 3c21 c53c 43e6 6cbd f932 bcbc
000000a0: ad0b 6abd afdb 4f39 9028 3b3d 646e aa3d
000000b0: 947e a0bd d56e 4f3d 5c68 48bc 0c88 193c
000000c0: 33d6 a73d 93df afbd b06a 2e3d 1e2d 4dbc
000000d0: 13c2 06bd db10 8cbc fdf2 963d 751c 9e3c
000000e0: 3974 bfbb e25c 973d 3f97 4abd b283 ec3d
000000f0: f824 823c abe8 81bd 0ea8 a53d 56b0 a1bd
00000100: f310 80bd df19 133d e099 34bd 6b5c 093e
00000110: 4e14 efbc 616d 4cbd 8893 c1bb 7a61 66bd
00000120: 2714 7dbd 0dee 8abd 94d2 043d b8c2 073d
00000130: f4e5 af3d 3076 673d 4a22 f3bc 388b ec3c
00000140: ce7e 1b3d d015 ac3d 0bd3 913d 9a09 8fbd
00000150: 746d 8abc f34d babd d23d 7ebd 6ad9 683d
00000160: 311b 23bc 23d3 143d ee68 913d a9bc e33c
00000170: 5869 683d f7fb 4b3d 2bed e13c 32ec 903c
00000180: 39f4 afbc cce2 9d3d d4f3 4e3d e81a 00bb
00000190: d3d5 cf3d 2fff c6bc afe0 7bbc cddd 8f3c
000001a0: c901 023e ae58 973d 4700 71bd 13a5 4abd
000001b0: ec00 b53d 44c3 c53d 9875 f9bb ac55 c63c
000001c0: 5cd5 bfbc c3aa 8abc 21b9 a0bb 2b66 94bd
000001d0: e2da 8abd 67aa 4bbd 280a 513d 160b a73d
000001e0: 9c8f 8f3d dc94 2dbd afa8 4bbd 8697 4dbc
000001f0: 15de b1bd 4478 7f3c 8490 98bd 1f30 3abc
00000200: 6e4e 4cbd 1909 0ebd 25a5 29bd eaf3 ac3d
00000210: 000d a1bd a6fa be3d e111 3dbd d431 32bd
00000220: 70ed 323d e86a 8cbd a5b3 e13d 0123 94bc
00000230: 2375 a7bd bf83 80bc ad12 fc3c 4072 23bc
00000240: 18e4 253d 831f 983d a534 1bbc 3ad6 023d
00000250: 4f1f b33c dc47 a3bd 1128 d23d fe0d 373d
00000260: cf24 e5bc b457 393d 339c 9abd 5cbc 403d
00000270: 117b b3bc 8564 72ba ab2d 70bb 9099 943d
00000280: 988a 813d dd8a ecbc af32 853d 96c4 f23c
00000290: 09a9 a9bc 4e11 ca3d 15d6 e23a 905a 09bd
000002a0: 69ab 15bd 4131 8b3b 7bd0 63bd 3c42 af3c
000002b0: 5fe4 adbc 73da 99bd 78ca cb3d 174d b83c
000002c0: c9a3 523c 3bec c33c ad11 5b3d ff26 b6bd
000002d0: a01c b23d aea3 21bd 3356 393d da63 efbc
000002e0: 37dd 4cbd e346 42bd fa1f 14bd 8259 943d
000002f0: 7885 65bd cc48 f4bc af8a 46bd 5dd1 60b9
00000300: b22a a9bd 70fa c9bd 4dc8 b63d 9b5c f03d
00000310: b706 adbd bcfb e8bc 2611 bd3c 7913 bf3c
00000320: 6d94 76bb e8ec 4cbd b955 97bd 7e21 fe3c
00000330: 9c36 2a3d 279f 18bd 8615 34bd a3d3 90bd
00000340: d470 33bd 429d ae3d 036c 49bd c959 0b3c
00000350: 34e2 663d 79d9 bfbd c5e3 a0bd d602 f5bc
00000360: eb42 2d3d 339e 613b e822 39bc ef01 883d
00000370: cf9e 253d 5962 103d 503d 26bd 427c c63d
00000380: c1a2 913d 911e 5abd 9e2a ab3c 886c e13c
00000390: fdb3 9c3d 526b 6d3d b07c a4bd 5453 343b
000003a0: f484 50bd 1b75 68bc 6e48 b4bc 5297 6c3c
000003b0: 6f5f 873c 1f02 9b3d f066 23bd b238 503d
000003c0: 02d7 c5bc 2ba7 da3d 4b5b 99bd d072 57bd
000003d0: d3f4 aa3c 2e4b d73c 4ab0 92bc 2dc1 563d
000003e0: 3a2d 7fbd bc81 e03d 7a40 793d 82aa ea3c
000003f0: 1fe7 5dbd 6cf1 413d 5a37 a03c 18ac 76bd

fc2.bias f4 [64]
-0.025266193 0.06326849 -0.092127584 0.12636712 0.008996823 -0.08357269 0.027821662 -0.017009756
-0.040976547 0.05290292 -0.059717305 0.082733884 -0.0147769535 -0.09405224 0.05314702 0.119165726
0.056239087 -0.0004115516 0.09573071 0.013411574 -0.014047356 0.03907908 -0.039544795 -0.04907253
-0.015941909 -0.089333974 0.061511405 0.10155377 -0.03322469 0.0044503678 0.04762929 0.13516608
0.13833436 0.039002754 0.07731161 -0.049636282 -0.010895138 0.040491886 -0.00075084047 0.045554485
0.12886687 0.099253885 0.04724217 0.00030564837 -0.03513406 -0.056032445 0.02658573 -0.020369757
0.05697727 -0.0011587297 0.012160762 0.016125463 0.05822631 0.059377566 0.086207554 -0.07488375
0.1339421 0.012881786 0.040167563 0.138261 -0.10342556 0.032249387 0.05978187 -0.09276507
00000000: 0cfb cebc e992 813d 63ad bcbd 6266 013e
00000010: 6967 133c 2928 abbd 41ea e33c 0b58 8bbc
00000020: 06d7 27bd bbb0 583d 229a 74bd 6270 a93d
00000030: 091b 72bc 769e c0bd b1b0 593d 290d f43d
00000040: f55a 663d 85c5 d7b9 760e c43d 38bc 5b3c
00000050: e226 66bc 6311 203d b9f9 21bd 4700 49bd
00000060: 9b98 82bc bbf4 b6bd 62f3 7b3d 6cfb cf3d
00000070: 9d16 08bd 64d4 913b ee16 433d fa68 0a3e
00000080: 86a7 0d3e 5ac1 1f3d 8d55 9e3d 6a4f 4bbd
00000090: 8581 32bc d2da 253d 0dd4 44ba 5797 3a3d
000000a0: adf5 033e 9f45 cb3d 0181 413d 6e3f a039
000000b0: bbe8 0fbd 4782 65bd 51ca d93c 7ade a6bc
000000c0: ff60 693d 84e0 97ba ef3d 473c 8c19 843c
000000d0: b67e 6e3d e435 733d 968d b03d a75c 99bd
000000e0: 1e28 093e 200e 533c be86 243d 4b94 0d3e
000000f0: c8d0 d3bd ef17 043d d6dd 743d 9dfb bdbd

fc3.weight f4 [2, 64]
-0.051441703 -0.059101738 -0.114516616 0.04072024 0.14190969 -0.06777967 -0.002649551 -0.11554741
-0.1641091 0.18532382 0.033709317 0.13407183 -0.0940818 -0.08369619 -0.02833297 0.116058595
-0.010442829 -0.060670495 0.15123355 -0.023713654 -0.086015075 0.16259703 0.08473003 -0.09793552
-0.16640593 0.029296648 -0.06617209 0.15382966 0.035623733 -0.107420295 0.17678596 0.016765546
0.15955865 -0.14663032 0.18039955 -0.037749086 0.18966466 0.16322894 -0.10195471 0.03732384
0.1660866 0.1273297 0.05328884 -0.059812274 -0.17604442 -0.14208578 -0.06412562 -0.07332352
-0.03112206 0.061489485 0.08850661 -0.013391066 -0.07010939 0.17145188 -0.02273601 -0.08855864
0.022636078 -0.11340803 0.073440865 0.09704635 -0.0065271105 -0.0969388 -0.11463876 -0.030230071
0.031763904 0.1337732 0.11827825 -0.16053085 -0.15595546 0.034308907 -0.14139152 0.07777124
0.14442475 -0.05100087 0.054684788 -0.023837216 -0.015963288 -0.0004999844 0.02392008 -0.16894469
-0.15044415 0.12445574 -0.16850278 -0.1657579 -0.052087758 -0.14623077 0.09680574 -0.039485738
-0.050399404 0.006913267 0.008879316 0.0064436654 0.07593916 0.11379559 -0.0040677073 -0.133863
-0.12761198 0.010556999 0.021738632 0.10114733 0.032110702 0.01258571 -0.041364543 0.052540123
-0.019954897 0.018632278 -0.11078643 0.05954603 0.13961977 -0.009062514 0.13401052 -0.088489175
0.10593593 0.15804118 0.12669939 -0.056698658 0.16338411 -0.042639676 -0.19305389 -0.046351988
-0.14244455 0.11403466 -0.06871883 -0.07720574 0.089888185 -0.0017945278 0.0023934874 0.079322234
00000000: 89b4 52bd aa14 72bd b087 eabd 44ca 263d
00000010: c650 113e 11d0 8abd 17a4 2dbb 1fa4 ecbd
00000020: 370c 28be 87c5 3d3e c812 0a3d 204a 093e
00000030: f5ad c0bd e868 abbd 8b1a e8bc 21b0 ed3d
00000040: 6618 2bbc a081 78bd f8dc 1a3e 2343 c2bc
00000050: ac28 b0bd d67f 263e f086 ad3d 6b92 c8bd
00000060: 5166 2abe 86ff ef3c 3c85 87bd 8685 1d3e
00000070: 31ea 113d 2cff dbbd 6107 353e e657 893c
00000080: 5863 233e 4226 16be a9ba 383e c99e 1abd
00000090: 7437 423e 7d25 273e a2cd d0bd e2e0 183d
000000a0: 9b12 2a3e b862 023e 6645 5a3d b7fd 74bd
000000b0: fd44 34be ef7e 11be 4b54 83bd a42a 96bd
000000c0: b1f3 febc 66dc 7b3d f442 b53d 3466 5bbc
000000d0: 8395 8fbd 1591 2f3e de40 babc 3b5e b5bd
000000e0: 4c6f b93c 7842 e8bd 2a68 963d 3dc0 c63d
000000f0: 5fe1 d5bb d987 c6bd bac7 eabd 0ea5 f7bc
00000100: de1a 023d d7fb 083e de3b f23d 3362 24be
00000110: cab2 1fbe 7f87 0c3d f0c8 10be 8746 9f3d
00000120: 15e4 133e 4ae6 50bd 28fd 5f3d 4446 c3bc
00000130: 71c5 82bc 6311 03ba 0bf4 c33c d6ff 2cbe
00000140: 080e 1abe a7e2 fe3d fe8b 2cbe 70bc 29be
00000150: f959 55bd 85bd 15be 1642 c63d ccbb 21bd
00000160: 9b6f 4ebd b088 e23b 8d7a 113c 6225 d33b
00000170: fe85 9b3d aa0d e93d 674a 85bb 6213 09be
00000180: b7ac 02be 43f7 2c3c 3715 b23c 5526 cf3d
00000190: 8386 033d 4b34 4e3c de6d 29bd 5034 573d
000001a0: 7478 a3bc b8a2 983c ffe3 e2bd 8ae6 733d
000001b0: 7cf8 0e3e f07a 14bc 0e3a 093e d039 b5bd
000001c0: f0f4 d83d 8cd5 213e 7cbd 013e da3c 68bd
000001d0: 2a4e 273e f1a6 2ebd ebaf 45be 95db 3dbd
000001e0: fcdc 11be 018b e93d 75bc 8cbd 0b1e 9ebd
000001f0: 4c17 b83d 5c36 ebba 0edc 1c3b b273 a23d

fc3.bias f4 [2]
-0.013389252 -0.03438012
00000000: 985e 5bbc 2bd2 0cbd
